balls.pth (torch_old, 3672 bytes, 5 tensors)

0.weight f4 [64, 8]
0	0x3ebc4d1a	0.36777574
1	0x3e9ada7f	0.30244824
2	0x3f01d2f9	0.50712544
3	0xbed81d36	-0.42209786
4	0xbd47a4a7	-0.04874101
5	0xbf32f806	-0.69909704
6	0xbf0515be	-0.519863
7	0x3eaffa5d	0.343707
8	0xbedb3bcb	-0.42819056
9	0xbeff2b90	-0.49837923
10	0x3e6eeb6d	0.23331995
11	0x3e5a6053	0.21325807
12	0xbe0fe07e	-0.1405048
13	0x3dc05196	0.09390561
14	0x3dd1e970	0.10249603
15	0xbe9a93f5	-0.30191007
16	0xbed0cf00	-0.40782928
17	0x3d867c7d	0.06566713
18	0xbee969f7	-0.45588657
19	0xbe947cec	-0.29001558
20	0xbe564ade	-0.20926997
21	0x3e134d95	0.14385064
22	0x3ecbc2a5	0.3979694
23	0x3f2601c5	0.6484645
24	0xbc1996b7	-0.009374312
25	0xbe8d7a11	-0.27632192
26	0xbd52e37a	-0.05148647
27	0x3ea5e4d1	0.32401136
28	0x3e8066c0	0.25078392
29	0xbea950c8	-0.33069444
30	0xbdb46011	-0.08807386
31	0xbeaaca61	-0.33357528
32	0x3e4586a9	0.1928965
33	0x3db67eb9	0.08910889
34	0x3dfa0b1d	0.12209151
35	0x3df8263e	0.12116669
36	0x3eb64ba9	0.356046
37	0xbe1bec6e	-0.1522691
38	0xbe77ea33	-0.24210434
39	0x3efbe348	0.4919684
40	0x3e13c120	0.1442914
41	0xbe158dc7	-0.14604865
42	0xbc0dee67	-0.008662797
43	0xbe245857	-0.16049324
44	0x3caa043e	0.020753976
45	0xbd3188a0	-0.043343186
46	0x3ef7b0bf	0.48377034
47	0xbdad7822	-0.08470179
48	0xbe45bf53	-0.19311266
49	0xbe689b5e	-0.22715518
50	0x3d96d3ab	0.07364591
51	0x3c72c041	0.014816345
52	0xbd13de6d	-0.036100794
53	0xbe03585b	-0.12826674
54	0x3efbd9a1	0.49189475
55	0x3e3fc863	0.18728785
56	0x3dd4260f	0.103588216
57	0xbd46308e	-0.04838615
58	0x3e581858	0.21103036
59	0xbe2cdfce	-0.1688225
60	0x3e2e94ae	0.17048904
61	0x3e0bfe19	0.1367115
62	0xbf0f1d96	-0.5590452
63	0x3d26bfbb	0.040710192
64	0x3bc654e8	0.006052602
65	0xbee5113a	-0.44739705
66	0xbd8ffc3d	-0.070305325
67	0x3e172cfd	0.14763255
68	0xbe273936	-0.16330418
69	0xbe49f5f2	-0.19722727
70	0xbd954e13	-0.07290282
71	0xbece75ee	-0.40324348
72	0x3ebafccf	0.36521003
73	0xbd81c73c	-0.06336829
74	0x3d7d7c79	0.061886285
75	0xbe800cd1	-0.25009778
76	0x3dc2dfae	0.0951532
77	0x3de9f6a1	0.11423994
78	0x3e068cdf	0.13139676
79	0x3d2c3be3	0.0420493
80	0xbddb1cb7	-0.10698836
81	0xbe876db5	-0.26450887
82	0xbe39a305	-0.18128593
83	0xbebdcefd	-0.37071982
84	0x3eaf34ec	0.34220064
85	0xbef3b08d	-0.47595635
86	0x3dca94bb	0.09891649
87	0xbe5c91b5	-0.21539958
88	0xbeb04ff1	-0.3443599
89	0xbea9ffea	-0.3320306
90	0x3e6108f0	0.21976066
91	0xbe198c99	-0.1499504
92	0xbe507a55	-0.20359166
93	0xbebba3bd	-0.3664836
94	0x3dd00289	0.101567335
95	0xbe986234	-0.29762423
96	0x3e7af63f	0.24507998
97	0xbd95faf2	-0.07323255
98	0xbdda97a4	-0.106734544
99	0x3c06712a	0.008205691
100	0xbe910d0f	-0.28330275
101	0xbe7fad63	-0.24968486
102	0xbdfaf31c	-0.12253401
103	0xbeb3e75f	-0.3513746
104	0xbeb27fe8	-0.3486321
105	0x3f671240	0.9026222
106	0x3e12cbe5	0.14335592
107	0x3e92e98d	0.2869381
108	0x3dd7e753	0.105421685
109	0xbd67e03b	-0.056610327
110	0xbe8bd3a9	-0.2730992
111	0xbe8e6155	-0.27808633
112	0x3e760d8a	0.24028602
113	0x3ddcda6b	0.107838474
114	0xbd9d9aaa	-0.076955155
115	0xbe2bb99f	-0.16770028
116	0x3e4cfe20	0.20018816
117	0xbc0a2a7d	-0.008432982
118	0x3f12a379	0.5728069
119	0x3e3fa552	0.18715408
120	0xbe374536	-0.17897496
121	0xbea60f9a	-0.32433778
122	0xbe5651cd	-0.20929642
123	0xbe407afc	-0.18796915
124	0xbeadd0da	-0.33948404
125	0xbe5617a8	-0.20907462
126	0x3d87f750	0.06638968
127	0xbe9f8704	-0.31157696
128	0xbe502439	-0.20326318
129	0xbd154720	-0.036444783
130	0xbe599ef9	-0.2125205
131	0xbe5e3de1	-0.21703292
132	0x3d8606bf	0.065442555
133	0xbec7b867	-0.39007875
134	0x3da8b28e	0.082371816
135	0xbec8d2d0	-0.39223337
136	0x3dfd1007	0.123565726
137	0xbe52f548	-0.2060138
138	0xbe724fb0	-0.23663211
139	0x3ea58983	0.32331476
140	0xbdb89b5e	-0.09014009
141	0xbf02fc8f	-0.51166624
142	0xbf166cb3	-0.5875961
143	0x3ddb93ca	0.10721548
144	0xbed6a824	-0.41925156
145	0x3f1bcd36	0.6086
146	0x3e46ceaf	0.19414781
147	0xbe71c724	-0.23611122
148	0x3e81645a	0.25271875
149	0xbec93384	-0.39297116
150	0xbf0d2a74	-0.55142903
151	0xbe626d26	-0.2211195
152	0x3f433098	0.76246023
153	0x3ebd2c3e	0.36947817
154	0xbcd6ac6d	-0.026205266
155	0x3e1a1842	0.15048316
156	0xbf06d7f7	-0.52673286
157	0xbe88a4f6	-0.26688355
158	0x3ee9f9e5	0.45698467
159	0xbdf15441	-0.11783648
160	0x3f086f3b	0.53294724
161	0xbecd67b6	-0.40118188
162	0xbd3c9420	-0.0460397
163	0xbe532fe7	-0.20623742
164	0xbdf715b9	-0.1206469
165	0x3e52cf2a	0.2058684
166	0x3e7af75e	0.24508426
167	0x3e791bb0	0.24326968
168	0xbd04303b	-0.03227256
169	0xbb5021da	-0.0031758458
170	0x3c11cb13	0.008898514
171	0x3bccc5a6	0.0062491475
172	0xbeb699e5	-0.35664287
173	0x3ea35e9a	0.31908113
174	0xbe7717c3	-0.24130158
175	0xbd99a250	-0.07501662
176	0xbe836b58	-0.25667834
177	0x3c9fb4e4	0.019495435
178	0xbdc31a62	-0.095265165
179	0xbc029585	-0.007970219
180	0x3e9d3957	0.3070781
181	0x3e738ac5	0.23783405
182	0xbedb9e0c	-0.42894018
183	0xbe55db87	-0.20884524
184	0xbdfb9098	-0.122834384
185	0xbd0b780e	-0.03405004
186	0x3e94d54c	0.29068983
187	0x3e83989c	0.2570237
188	0xbe80be6e	-0.25145286
189	0xbd2f6529	-0.042821083
190	0x3d9d59c2	0.076831356
191	0xbf1420fe	-0.5786284
192	0xbf0455b8	-0.51693296
193	0xbe7d57ee	-0.24740574
194	0xbd21caef	-0.039500173
195	0x3e53169d	0.20614095
196	0xbf486730	-0.7828245
197	0x3e5b69c0	0.21427059
198	0x3e809d99	0.25120237
199	0x3f8ced4d	1.1009918
200	0x3e4460dc	0.19177574
201	0xbdf64e6f	-0.12026679
202	0xbd2301d3	-0.03979666
203	0xbe899826	-0.26873893
204	0x3e96bccb	0.29440913
205	0xbe81e266	-0.2536804
206	0x3ea0e650	0.31425714
207	0x3d970510	0.073740125
208	0x3e762c73	0.24040394
209	0xbddfb1d3	-0.10922589
210	0xbe7467bc	-0.23867697
211	0x3eeab992	0.45844704
212	0xbe48eec8	-0.19622338
213	0x3e9e4b51	0.30916837
214	0xbe104344	-0.1408816
215	0x3eed3fa7	0.46337625
216	0x3d698214	0.057008818
217	0xbe75c53c	-0.2400102
218	0x3c8354d4	0.01603166
219	0x3e14c053	0.14526491
220	0xbe55de38	-0.20885551
221	0x3e69cffa	0.22833243
222	0xbddb1110	-0.10696614
223	0xbef826bd	-0.48467055
224	0xbe66e65a	-0.2254881
225	0x3da4bc1b	0.08043691
226	0x3db8031a	0.089849666
227	0x3de96902	0.11396982
228	0x3e434222	0.19068196
229	0x3e91debb	0.28490242
230	0x3e148e13	0.14507322
231	0x3ed2c5e5	0.41166607
232	0xbe0f4595	-0.13991387
233	0xbee1b8dc	-0.4408635
234	0xbec55ab2	-0.38545758
235	0xbec92a79	-0.39290217
236	0x3e13e77e	0.14443776
237	0xbceb0c9a	-0.028692532
238	0xbef17c78	-0.47165275
239	0x3eddad86	0.4329645
240	0x3cd168ee	0.02556273
241	0x3e7d4d12	0.24736431
242	0xbdc7aab7	-0.09749358
243	0xbead5b0a	-0.3385852
244	0xbe8ee3e2	-0.27908236
245	0xbce1b84c	-0.0275537
246	0x3eb3ce6e	0.3511843
247	0xbddb2453	-0.10700288
248	0xbde95bb2	-0.113944426
249	0x3ef827d3	0.48467883
250	0xbece249c	-0.40262306
251	0x3ec64037	0.38720867
252	0x3e843fb0	0.2582984
253	0x3e0ca16e	0.13733456
254	0xbd520260	-0.051271796
255	0x3eb0a5af	0.34501407

0.bias f4 [64]
0	0xbdc5b529	-0.09653694
1	0x3e8d027c	0.27540958
2	0x3e5c6b88	0.21525395
3	0x3e5f0e3a	0.21782771
4	0x3e0a4aad	0.13505049
5	0x3e86ba93	0.2631422
6	0x3e8933c9	0.2679732
7	0x3e7a4b6f	0.24442838
8	0x3c3e8aeb	0.0116298
9	0x3e502b55	0.2032903
10	0x3ebedd22	0.37278086
11	0xbd7a6f09	-0.061141048
12	0x3db68202	0.08911516
13	0xbece668b	-0.4031261
14	0xbeb587ed	-0.35455266
15	0xbe3c12ae	-0.183665
16	0x3e39b584	0.18135649
17	0x3e0ba1c7	0.13635932
18	0xbee0c5bb	-0.43900856
19	0x3d671c31	0.05642337
20	0xbeac7c2b	-0.33688483
21	0xbe35399c	-0.17697757
22	0xbe8ab8fb	-0.27094254
23	0xbdec3f88	-0.11535555
24	0xbcb30c8f	-0.021856574
25	0x3e002d5c	0.12517303
26	0xbd1beca9	-0.038067494
27	0xbe86101a	-0.2618416
28	0x3d97c893	0.07411303
29	0x3ccc1217	0.02491097
30	0x3e1989c4	0.1499396
31	0xbe8e4ed2	-0.2779451
32	0x3e79aaf6	0.24381623
33	0xbe923b57	-0.28560898
34	0xbe7a94a1	-0.2447076
35	0x3ee13d2c	0.43991983
36	0x3c20b705	0.00980926
37	0xbe18b9d1	-0.14914633
38	0xbe0094a6	-0.12556705
39	0xbdda60f8	-0.106630266
40	0xbcd88cb3	-0.026434278
41	0xbda7c144	-0.08191159
42	0xbe824f86	-0.25451297
43	0xbeb276bc	-0.34856212
44	0xbed698b6	-0.41913384
45	0x3ead79c2	0.33881956
46	0xbecd817b	-0.40137848
47	0x3e4fca5b	0.20292036
48	0x3d4c0fb4	0.049819663
49	0xbd7d7e0d	-0.06188779
50	0x3d7dca65	0.061960597
51	0xbeb2ce29	-0.34922913
52	0x3dc42851	0.09578002
53	0x3e850dbc	0.2598704
54	0xbdc55c4a	-0.09636743
55	0xbec84af9	-0.391197
56	0x3dd451a3	0.103671335
57	0xbe3b7deb	-0.18309753
58	0xbe887641	-0.2665272
59	0x3ea6ba62	0.32564074
60	0xbed3ee41	-0.4139271
61	0xbe67a0d6	-0.22619948
62	0x3d34603d	0.044037092
63	0xbdf4261d	-0.11921332

2.weight f4 [2, 64]
0	0xbb6fcec0	-0.0036591738
1	0xbe2b6de8	-0.16741145
2	0x3d92989e	0.07158016
3	0xbc962a5b	-0.018330744
4	0x3e2e1029	0.16998352
5	0x3d2d22dd	0.042269576
6	0xbe0043e0	-0.12525892
7	0x3d7ee44b	0.062229436
8	0xbdc5d0e9	-0.09658987
9	0x3e2a2fe3	0.1661983
10	0x3e0b41b6	0.13599285
11	0xbe9498ac	-0.2902273
12	0x3ecf22f8	0.40456367
13	0x3f08f4f8	0.5349879
14	0xbec391c2	-0.38197142
15	0xbe14a335	-0.14515384
16	0x3dc0a42f	0.094063155
17	0x3db8cd25	0.09023503
18	0xbe9bc665	-0.304248
19	0x3f2804c3	0.65632266
20	0xbe4defb3	-0.20110969
21	0xbe4b8b2e	-0.19877312
22	0xbe16629f	-0.14686058
23	0x3e33431f	0.17506073
24	0x3f440bfc	0.76580787
25	0xbcef2ab3	-0.029195165
26	0xbd6ff4d4	-0.058583096
27	0xbd051b20	-0.03249657
28	0xbe677655	-0.22603734
29	0x3e698216	0.2280353
30	0xbde820d9	-0.1133439
31	0xbeca814f	-0.3955178
32	0x3d12356e	0.035695486
33	0xbeda29d6	-0.42610043
34	0x3ce5b68a	0.028041143
35	0xbf9fab6b	-1.2474188
36	0x3df64312	0.120245114
37	0x3c832d26	0.01601274
38	0xbe4c969e	-0.19979331
39	0x3e6f04db	0.23341696
40	0x3dec5204	0.11539081
41	0x3e241115	0.16022141
42	0xbe70f13d	-0.23529525
43	0xbe140709	-0.14455809
44	0x3f0e01af	0.5547132
45	0xbe05c338	-0.13062751
46	0xbf26d142	-0.6516305
47	0x3df67d87	0.12035661
48	0x3de2a7fb	0.11067196
49	0xbdad5b0f	-0.08464634
50	0xbe2c7fae	-0.16845581
51	0xbd73cfd8	-0.059524387
52	0xbe5fa300	-0.21839523
53	0x3dbb8d91	0.09157861
54	0xbe0c7d2c	-0.13719624
55	0xbe83ebbe	-0.25765795
56	0x3d8d3f73	0.068968676
57	0x3e9dc9f1	0.30818132
58	0xbeb3ca60	-0.35115337
59	0x3ebb32dc	0.3656224
60	0xbe9526f4	-0.2913128
61	0xbf0c6324	-0.54838777
62	0x3cc836a5	0.024440119
63	0x3d9e30b8	0.07724136
64	0x3f0fe9e9	0.56216294
65	0x3e1be984	0.15225798
66	0x3eee6912	0.46564537
67	0xbd842031	-0.064514525
68	0xbe80874f	-0.25103232
69	0x3db0ad77	0.08626836
70	0xbd7a07c1	-0.06104255
71	0x3d1449a4	0.03620304
72	0x3eb906c9	0.3613799
73	0x3d4b8948	0.04969147
74	0xbecdbc92	-0.4018293
75	0xbc774f2c	-0.01509456
76	0x3e522ea8	0.2052561
77	0x3efafd3e	0.49021333
78	0xbe220592	-0.15822437
79	0x3d252be7	0.04032507
80	0xbe9f4615	-0.31108156
81	0x3e13d019	0.14434852
82	0xbf1dcecc	-0.6164367
83	0x3ec95d86	0.39329165
84	0x3eb24fc8	0.34826493
85	0xbdd3999d	-0.10332034
86	0xbe6aa0eb	-0.22912948
87	0x3dced9f5	0.10100166
88	0x3f50aaa3	0.8151037
89	0x3e4cb068	0.19989169
90	0x3dee3e85	0.116330184
91	0x3dc9401b	0.0982668
92	0xbdb8703d	-0.09005783
93	0xbebdc27c	-0.37062442
94	0xbc9ce282	-0.019150976
95	0xbe021b87	-0.12705813
96	0xbe8b727c	-0.27235782
97	0xbf3f0722	-0.7462026
98	0x3d79e3b9	0.06100819
99	0xbf72d707	-0.94859356
100	0xbe45910e	-0.19293615
101	0x3d8d54de	0.06900953
102	0xbed96144	-0.4245702
103	0x3e05f006	0.13079843
104	0xbd1aa304	-0.03775312
105	0x3da73967	0.081652455
106	0x3ebb4368	0.36574864
107	0xbe8707c9	-0.26373127
108	0x3e3008fb	0.17190926
109	0xbeca9ec3	-0.3957425
110	0xbd646078	-0.055756062
111	0xbdd8fc16	-0.105949566
112	0xbe851423	-0.25991926
113	0xbda7124c	-0.08157787
114	0xbcb19421	-0.021677079
115	0x3e9637cc	0.29339445
116	0xbe5bd4a9	-0.21467842
117	0xbe82fcaf	-0.25583407
118	0x3ec94eb9	0.39317873
119	0xbdfdfe31	-0.12401999
120	0x3ca33f92	0.019927774
121	0x3ee712d2	0.45131546
122	0x3e2f08e5	0.17093237
123	0xbf0e125a	-0.5549675
124	0xbe1afede	-0.15136287
125	0xbe8c8ebd	-0.2745265
126	0x3e95f258	0.29286456
127	0xbdc74b5b	-0.0973117

2.bias f4 [2]
0	0x3f17dc41	0.59320456
1	0x3e78a330	0.24281001

logstd f4 [2]
0	0x3f2cdf03	0.6752779
1	0x3e7f5620	0.24935198
